assets/demos/rl-cartpole/models/policy_model_best.onnx (onnx, 46567 bytes, 6 tensors)

torso.0.weight f4 [128, 4]
00000000: c2e3 bc3e da7c f43e a649 0bbc 8192 123f
00000010: 1374 c4bd b98e eb3d f66d 81be 74ff 8e3e
00000020: 2b35 f13e 99ce c3be 2081 2f3f 1ffb d33d
00000030: cda8 bb3e 186a 953d 9ff5 bd3e 241d ac3a
00000040: 0b6c b43e 796c f83c 29b2 76be db1a 163e
00000050: b654 a8be d26e c6bd fae9 dabe b884 903e
00000060: 33b1 c7be 8e6b 6ebe 0d20 733c 5996 c7be
00000070: 8915 803d 81ed 02bf 750d 643e 1646 ddbe
00000080: 4577 cd3e e699 db3d c4dd acbc 106b b53e
00000090: e2e3 783d b169 ba3e 1c59 12bd b01d 9cbe
000000a0: 72ed 333e 5c77 8bbd 796b e23e 9871 fe3e
000000b0: 30c5 7e3e dbc3 5fbe 2f2f 183f 8595 0e3e
000000c0: f320 763e ea9a aebe 85fa e3be bb9b 7dbe
000000d0: 87e7 83be f97a d93e b80a 793e 4a21 6a3e
000000e0: e09e ef3d 100a f3bb 4241 513e 7ad4 04bf
000000f0: 0d31 db3c 9cd7 a4be 5adb e0bd 5bfa 81be
00000100: 17cf f03d 0693 d7bd a783 8a3e 6e4e f4be
00000110: 0d47 94be d675 89be 59dc 093f d1a9 513e
00000120: 0c32 f03e 9dd5 dabe f43f 31bf 701e efbe
00000130: d99a a3be 6448 7c3e e5b8 e33d a833 073f
00000140: 5180 7fbe c90b b7be 6ad5 aebd fd16 8ebe
00000150: 8820 733e a22d 23be 276e a83e 1ee3 01bf
00000160: 73a6 54be 5374 153e 2e2a d43d c9a6 69be
00000170: 8c06 9d3e 1f68 ab3e 85ff 0dbf 5881 8fbe
00000180: a4da f33e b42d 1abe 75ee 4ebe b732 0abf
00000190: c2b8 91be e40e c83d d562 f4be af95 9dbe
000001a0: 6680 f2bd 1598 c4be afb3 3fbf fb3a a3be
000001b0: 911b cfbe f955 71be 9c66 683f 83d6 c03d
000001c0: cbd5 103e b662 f5be e984 d7be 1101 72be
000001d0: 9bec 923d fd05 f1be 7eb7 08bf 39ff aabe
000001e0: 2ee5 d9bc acce 6bbe c247 a7be d156 9bbe
000001f0: 973a b0be 4cca aabe 5e89 04bf 075d bcbe
00000200: 4460 c33e f9d4 b9bd a2ef 4a3f e06e 973e
00000210: 83ce dabe acb3 ab3e 5a2b 0fbf b4a9 c3bd
00000220: dbb4 c0be 5cf7 d6be 4a6f e13e 99e1 2abe
00000230: 05c8 3e3e 8906 d1be 41cf 123f 73e6 e3be
00000240: 7fed 7ebd 7b27 173e ce0e 223f b0b2 063f
00000250: 359e f93e fbd6 cdbe b85a f83d 2672 9dbe
00000260: ccbc 27bd 565f c2be 1c97 5a3e eb76 d7be
00000270: a8d7 803e d2c1 fa3d 6fde b93a 2096 d7be
00000280: 0042 fa3e b1ae d63d 2609 3abd a679 d8be
00000290: 8dd0 2c3e d282 abbd 66e0 0d3e 1d36 163f
000002a0: d5c3 053e c229 73be 3a7a 72be f3be 51bd
000002b0: 3f7f 793e 216f ebbd c555 70be 6a44 2cbe
000002c0: 445f abbe 0a8e 1c3e fc43 b43e d1d4 21bf
000002d0: a641 e33d 0f51 453e 1894 1cbe 77ee 09be
000002e0: 6902 6f3e abd4 573e 0c33 123e 0fd9 72bd
000002f0: 301c cabd 1061 223d b200 b4bd babb 8ebe
00000300: 0e15 8f3e 22e6 b13e 4b9d 2ebe 0bc8 14be
00000310: 8c69 cb3c 1714 393b 67d8 023f a242 443e
00000320: f42b cabe 959b d3bd 47f9 303f 1647 693e
00000330: 164e 37be 8ad4 abbe de82 34bf 7d1c debe
00000340: 7ee8 f5bd 9a2c 173e a517 933e b3c6 5a3e
00000350: ff40 debe 1e12 8ebe 81e7 0fbe 1a2a 043f
00000360: 1821 943d d097 04be 7cd2 533e e802 43be
00000370: aec3 a1be 9687 b73e 5c76 1dbf a48d 01bd
00000380: 6a4e fcbe db0e 943e 9b15 7b3e e10d a23e
00000390: 5be3 bcbe 2a8c edbe 0ed5 20bf 7ae6 a43e
000003a0: 99f4 8b3e 98c0 033f e71a b63e 447d 3b3e
000003b0: 662d 34be e0d8 e9be 6c06 44bf 7db8 ddbe
000003c0: 9a57 613e f29f 91be fc25 3abe e9c8 b2be
000003d0: 1a6b 83bc 72d8 90be 39d2 14bc 14d2 603e
000003e0: 3936 19be 2906 813e d302 74be 429d e2be
000003f0: e41c bfbd da0b 91be f688 0cbf ddff debe
0.36892515 0.47751504 -0.008501446 0.572548 -0.09592452 0.115018316 -0.25279206 0.2792927
0.47110876 -0.3824356 0.68556404 0.10350632 0.36652222 0.072956264 0.37101457 0.0013131243
0.3523868 0.030325161 -0.240914 0.14658682 -0.3287713 -0.09689106 -0.42756635 0.28226256
-0.3900238 -0.23283216 0.0148391845 -0.38981894 0.062541075 -0.5114365 0.22270758 -0.43217534
0.40130058 0.10722713 -0.02110184 0.35433245 0.0607642 0.3640876 -0.035729513 -0.304914
0.17571047 -0.06809875 0.4422262 0.4969604 0.24879909 -0.21852057 0.59446996 0.13924225
0.24036007 -0.34102565 -0.4452707 -0.24766438 -0.2576258 0.42476633 0.24320495 0.22864261
0.11700225 -0.007416971 0.2043505 -0.51886714 0.026756788 -0.32195747 -0.10979338 -0.2538632
0.11758249 -0.10526089 0.27053568 -0.47716087 -0.28960457 -0.26847714 0.5385185 0.20474936
0.46913183 -0.427411 -0.6923821 -0.4670291 -0.31954077 0.2463699 0.1111925 0.52813196
-0.24951293 -0.3575118 -0.08536799 -0.27751914 0.23742878 -0.15935376 0.3289654 -0.5073718
-0.2076662 0.14595155 0.10359608 -0.2281753 0.30669057 0.33477876 -0.55468017 -0.2802837
0.47627747 -0.15056497 -0.20208152 -0.53983635 -0.28461272 0.09768465 -0.47731653 -0.30778262
-0.11840896 -0.3839728 -0.7488355 -0.31880936 -0.4045072 -0.23567952 0.9078157 0.09415915
0.14144056 -0.47926873 -0.4209359 -0.2363322 0.07174035 -0.4707488 -0.53404987 -0.33397844
-0.02659854 -0.23028058 -0.32671934 -0.30339673 -0.344197 -0.33357465 -0.51772106 -0.36789724
0.38159382 -0.090738244 0.792719 0.29576778 -0.4273568 0.33535516 -0.55925524 -0.09553853
-0.37637982 -0.41985595 0.4403022 -0.16687621 0.18630989 -0.40825298 0.57347494 -0.44511756
-0.062238213 0.14761154 0.6330384 0.52616405 0.48753515 -0.4020308 0.12126678 -0.3075115
-0.040951535 -0.3796336 0.21346706 -0.42082915 0.25164533 0.122439995 0.001418067 -0.42106724
0.4887848 0.104825385 -0.04541888 -0.4228031 0.16876431 -0.08374561 0.13855132 0.5867632
0.13062985 -0.23746398 -0.23679438 -0.051207494 0.24364947 -0.114958055 -0.23470218 -0.16822973
-0.3347112 0.15288559 0.35208118 -0.6321536 0.11096506 0.19269203 -0.15290868 -0.13469873
0.23340763 0.2107722 0.14277285 -0.059289034 -0.098686576 0.039643347 -0.08789195 -0.278776
0.2794575 0.3474589 -0.1705219 -0.14529435 0.024830602 0.0028240734 0.51111454 0.19166043
-0.3948666 -0.10332409 0.6913037 0.22781023 -0.17900881 -0.33560592 -0.7051219 -0.4338111
-0.12007235 0.14763108 0.28728977 0.2136486 -0.43408963 -0.27748197 -0.14053155 0.5162674
0.07232875 -0.12948537 0.20685762 -0.19044077 -0.31594604 0.3584563 -0.6150873 -0.03162922
-0.49278575 0.28917584 0.2451996 0.31651214 -0.36892208 -0.46396 -0.62825096 0.3220709
0.2733505 0.5146575 0.355674 0.18309504 -0.17595443 -0.45673275 -0.765723 -0.43304816
0.22006074 -0.2844234 -0.18178552 -0.34918907 -0.016042281 -0.28290135 -0.009083324 0.21955138
-0.1496209 0.25200012 -0.23829202 -0.44260603 -0.09331682 -0.28329355 -0.54896486 -0.43554583

torso.0.bias f4 [128]
00000000: c93c fd3d 42d7 cabe 7baf 83be 0e38 d9be
00000010: 9861 d93e 6c27 dbbe b7b3 cc3e fa6f 95bc
00000020: 77c4 f8bc a322 9e3e d09a 61ba d18a b13e
00000030: 5600 c73e 512e f9be 4a97 093e b9e9 1f3d
00000040: 595a 8f3d c7e4 613d 182a 7c3d 0af6 2bbe
00000050: 756a 53bc 72b5 ed3e d4aa a53e e1d9 eabc
00000060: 3bec dfbe 6b36 ee3a 3be1 82be e12b d73e
00000070: 1161 8ebe e487 e13c 9468 9dbd d8ac 303d
00000080: 9ab2 f03e dad9 dc3c 71ad 9c3e 0853 d93e
00000090: f534 cb3e af3f 07be 5be5 b0bd e0b7 6a3e
000000a0: ef5e 16be 1a1e 823e ec78 2fbe 2fc5 c4be
000000b0: 51fb 193e 5d69 97bc 7e47 273e 23be f63e
000000c0: 7bc4 6b3e a2bb f83e bb39 b73c 76c4 95be
000000d0: 99a4 c9be 3e18 aebe 7e99 e1be b05c 72be
000000e0: 7f4a f4be 0e96 fabe 0502 74be 8366 c2be
000000f0: 5938 3fbe e11b 173e 64e8 c93e 93c6 8bbd
00000100: 1dc1 f1bd b1ca 933e 465d 54be 5a46 7bbe
00000110: 52e4 743e 0506 dfbe 8d56 4f3d 60ad c23e
00000120: 8cd9 fd3d cce7 b73d ce94 b0be 97da a43c
00000130: c575 a33c 342a 463e eb42 563e a696 c93e
00000140: 8abd e3be dc68 da3c 052f 8fbe 14f1 f4be
00000150: c8c0 21ba 8cfd 9bbe 18dd ba3e e04f 7e3d
00000160: 4c78 80be 4a82 8b3e 8462 d5be 3312 79be
00000170: f95c f6bc f5f7 d3be f6f1 b6be 653b 8fbd
00000180: 4333 b83e 3092 023f 87ed 973e 277d d5be
00000190: 6cfe afbe 1729 d33e c602 333e a6f7 c8ba
000001a0: 725f 0a3e 5725 bfbe 91c3 53be ed52 e33e
000001b0: ec07 6abc e43e 853c ac2b a0be 6981 88be
000001c0: f6be b23b a3b8 cabe 8a6b 12be a363 073e
000001d0: 4d94 01bf 2a3b e23d 9a3a abbe a246 84be
000001e0: 33e8 3b3e e6ec c53e b7d5 d5bd 9019 60be
000001f0: 4d34 e7be e683 8fbe da7d dbbe abab 22bd
0.123651095 -0.39617354 -0.25719818 -0.4242558 0.4245727 -0.42803514 0.39980862 -0.018241871
-0.03036712 0.308858 -0.00086061377 0.3467622 0.38867444 -0.4866815 0.13436618 0.039041255
0.06999654 0.05514982 0.06156358 -0.16793075 -0.012903799 0.46427494 0.32356894 -0.028668346
-0.43734917 0.0018174177 -0.25562462 0.42025664 -0.2780843 0.027530618 -0.07685962 0.043133587
0.47011262 0.026959348 0.30601075 0.4244616 0.3968884 -0.13207887 -0.08637496 0.22921705
-0.14684652 0.2541359 -0.17135972 -0.3843169 0.15037276 -0.018482858 0.16335866 0.48191938
0.2302417 0.48580652 0.022366395 -0.2925145 -0.3938339 -0.3400287 -0.44062418 -0.2366817
-0.47713086 -0.48942608 -0.23828895 -0.37968835 -0.18673839 0.14756729 0.39435112 -0.068249844
-0.118044116 0.2886558 -0.20738706 -0.24538556 0.23915222 -0.4355928 0.05061965 0.380229
0.123950094 0.089797586 -0.3448853 0.020123763 0.019953618 0.19352037 0.20923965 0.39372748
-0.44480544 0.026661329 -0.2796556 -0.47840178 -0.0006170389 -0.30466878 0.36496806 0.062087893
-0.2509178 0.2724784 -0.41676724 -0.24323349 -0.03007363 -0.41400114 -0.35731477 -0.069937505
0.3597661 0.51004314 0.29673406 -0.41697046 -0.34373796 0.41242287 0.17481527 -0.0015332594
0.13512972 -0.37333176 -0.20680071 0.44399205 -0.014284115 0.01626534 -0.3128332 -0.26661232
0.005454893 -0.39593992 -0.14298835 0.13221602 -0.50616914 0.11046441 -0.33443147 -0.2583514
0.18350296 0.38657302 -0.104411535 -0.21884751 -0.4515709 -0.28030318 -0.42869455 -0.039714497

torso.2.weight f4 [64, 128]
00000000: 47ec 9c3d df88 91bd 860c 0f3e 2093 9a3d
00000010: 336a 92bd 2787 f13d 458b d63b 558b 84bb
00000020: 04b2 383d 65fe 2dbd 1e1a ab3d 11ba 6bbd
00000030: 2928 c13c e234 45ba e4b9 56bb 37f3 7d3d
00000040: 67ad ccbc b0f0 36bd 2270 0bbd fdea 1b3e
00000050: f2a6 5fbd 6758 cbbc 555f c4bd 4e66 7b3d
00000060: 5729 533c ecbf f93c 44a6 ff3d 45c1 67ba
00000070: 62fa 843d 9534 6cbd d822 503d adbb 4d3d
00000080: d3ce ce3d 6f06 923d 3ee9 8bbd 39d2 d93c
00000090: 2955 c2bc a1e9 ea3c fd0b 85bd 41ca d7bc
000000a0: 092c 4d3d eb88 373a 284d 37bd 793f 0d3c
000000b0: c69b 8fbc 9a97 e63d 82b8 5abd 55a6 59bd
000000c0: 4842 9ebd a32c 50bd c92e 273d 2791 773e
000000d0: 26fb 09bb e2e1 fa3d d2aa 8d3c a1a0 b73d
000000e0: 688f e63d 206a fb3d 7524 093c f972 563e
000000f0: 3c43 753d 28be 55bd e92f a6bd 33ae 993a
00000100: 4839 213d 4ddd c5bd b7f0 973d 04fd 8c3d
00000110: d139 17bd 2631 753d e179 13bc ef36 f33c
00000120: bad2 b23b e474 b4bd 4b65 3e3e e059 243e
00000130: 7b2d eb3d ce0e 9bbd c02d 96b7 08ab 523c
00000140: 11c1 8b3d f9a6 9b3d 31a1 8f3d 4676 f73d
00000150: 11ba 0dbc 31e7 7b3e 2dfb c23c b2a1 04bd
00000160: 0beb 8dbd aa0b 33bd 1931 453e 9016 e3bd
00000170: bc26 21bd 75da 593e 8275 da3c 5413 9f3d
00000180: 4ffd c0bd 2b59 cbbd 246f 123d 4e6e 093e
00000190: 92d8 0d3d 7184 25bc 482c 543c e59d f03d
000001a0: 3167 b5bc b54e 40ba d7ec ef3c b21f 83bd
000001b0: d051 613d ae5c df3d d36f 983d a738 673d
000001c0: 050d a5bb f241 563d 13c2 b63d 6b9c 9bbd
000001d0: 334a 6ebc 5776 e73d cd5e 04bd 8959 003e
000001e0: cc45 80bd de0e debc ae01 e93c 5520 06bd
000001f0: b0b7 8bbd 5157 9e3d 2f87 0a3c 15df 20bd
00000200: 6f99 a6bd eae9 b23d eed6 8c3c bfae b63c
00000210: ccad 95bd 62b7 1ebd 9dfb 02bd b87b 11bd
00000220: f8bb 96bd 010a 4ebc e0ed 0f3c 15dd fabc
00000230: 49c2 e6bb 877e 0fbd 6eb0 4a3b d3c8 743c
00000240: 0962 88bd e01c a8bd 7bd8 d53c 12b8 ac3c
00000250: 00c3 58bd 7661 863d aa57 72bd fe61 203d
00000260: 745e a13c f080 bfbd e04c 713d d4b5 c4bd
00000270: 2293 48bd 65eb 0dbd c1b8 a2bd b91c 8a3d
00000280: 6920 1bbd 6a77 823c a0d2 c2bd 2e02 023d
00000290: 1c52 25bd 29d5 b5bd 435e cdbb 95b1 b93c
000002a0: ce63 623d ca18 94bd f8d5 5abd 392e 8b3c
000002b0: 6354 a23b fc73 683c a58c e83c 5fef 20bd
000002c0: fe72 ef3c 3b0f 3e3d 0425 bdbc 34cd 323d
000002d0: 7ae2 303d 2aab 9f3d b4bc 4dbd 0c77 81bd
000002e0: e35b d1bc 46eb 923b cde7 e43c f852 7bbd
000002f0: 947c 843c 9e01 34bd 94b8 0b3d ea36 c7bc
00000300: b396 9ebd d033 8cbd ac43 b3bd 43ab ce3c
00000310: 7c93 a2bd f3d5 e2bc 7407 8b39 6bd9 7bbd
00000320: 8e1f a03b b0ba d6bd 1010 8abd 772e ccbd
00000330: ac04 3cbd 0df7 d7bc abe5 abbb 068d 15bd
00000340: 1930 2a3d 9036 7c3d 71e5 013d 96f1 01bd
00000350: 774f d1bd e442 4d3c 4521 80bd 992b 4d3d
00000360: b5c8 f43c 4461 633c 36da a93d f1f3 813d
00000370: e950 993c a134 91bd 2be7 6f3d 2bc9 2bbd
00000380: 3eed 7bbd a175 5f3d e407 473d d587 0d3c
00000390: 6b3c 1ebc 84ce bdbd f4a6 e9bc 0bec 813d
000003a0: eaa8 4f3b edf9 f73b 1b21 21bd 2517 4cbd
000003b0: f32e 1d3d 719c b23b 7488 6b3d 8409 17bd
000003c0: d1f1 943c 4d70 153d d01f b6bb f231 133d
000003d0: 16da 783d 138f 703d 8849 603d e724 b9bc
000003e0: 5f15 c3bd 924f c3ba 6fdd e8bc ef46 05bd
000003f0: 50c9 12bd bd38 883b afaa 243d 77c1 fa3b
0.07662254 -0.07106184 0.13969621 0.07547593 -0.07149162 0.117933564 0.006547364 -0.00404493
0.045091644 -0.042478938 0.08354591 -0.057550494 0.02357872 -0.0007522834 -0.0032764608 0.061999526
-0.024985028 -0.04466313 -0.034042485 0.1522636 -0.05460257 -0.024822427 -0.09588496 0.061376862
0.012888274 0.030487023 0.124828845 -0.000884075 0.06493069 -0.057667334 0.05081448 0.05022781
0.10098042 0.07130133 -0.06831597 0.0265895 -0.023722248 0.028675856 -0.06496427 -0.02634156
0.050090823 0.00070012984 -0.044751316 0.00862109 -0.017530333 0.112593845 -0.053398617 -0.053137142
-0.07727486 -0.05082382 0.040816102 0.24176465 -0.0021054237 0.12250115 0.017293368 0.089661844
0.11257821 0.12276101 0.008370508 0.20942296 0.059878573 -0.0521833 -0.08114607 0.0011724889
0.03936127 -0.096613504 0.074189596 0.068841964 -0.036920372 0.059861325 -0.009001226 0.02968928
0.0054572495 -0.088113576 0.18593328 0.1604991 0.11483284 -0.07571183 -1.7902697e-05 0.01285816
0.06823934 0.07600207 0.07013167 0.12083106 -0.008650319 0.24599911 0.02380141 -0.032380767
-0.069295965 -0.043712296 0.1925701 -0.11088288 -0.03934358 0.21274741 0.02666736 0.077673584
-0.09423315 -0.09929117 0.035750523 0.13420984 0.034630366 -0.010102377 0.012950011 0.11748866
-0.022143932 -0.0007335947 0.029287739 -0.0640253 0.055009663 0.10906349 0.07443204 0.056450512
-0.0050369524 0.052308984 0.089237355 -0.07598194 -0.014544058 0.113018684 -0.03231697 0.12534155
-0.06263313 -0.027106699 0.028443184 -0.032745678 -0.06822145 0.07731498 0.008455082 -0.039275248
-0.08134734 0.08736022 0.01719233 0.022300122 -0.0730854 -0.038749106 -0.03197824 -0.035518378
-0.07360071 -0.012575627 0.008784741 -0.030622998 -0.0070422036 -0.035032775 0.0030927914 0.014940458
-0.06659324 -0.082086325 0.026104202 0.021083865 -0.05292034 0.06561558 -0.059165634 0.039155953
0.01969836 -0.09350765 0.058911204 -0.096049935 -0.04896844 -0.034648318 -0.07945395 0.0674376
-0.037872706 0.015926082 -0.0951283 0.03174036 -0.04036151 -0.08878548 -0.0062673404 0.022667686
0.055270962 -0.07231291 -0.053426713 0.016989814 0.0049539073 0.014187809 0.028387377 -0.039290782
0.029229637 0.046401244 -0.02308894 0.04365273 0.043184735 0.07796319 -0.05022879 -0.063215345
-0.02555651 0.004483613 0.027942562 -0.061358422 0.016172685 -0.043946855 0.034111574 -0.024318177
-0.07743587 -0.0684582 -0.08753142 0.025228148 -0.07938287 -0.02768991 0.000265177 -0.061486643
0.004886574 -0.104848266 -0.06741345 -0.099698 -0.045902893 -0.02636292 -0.0052458844 -0.036511444
0.041549776 0.061575472 0.031712953 -0.031724535 -0.10220235 0.012528155 -0.06256346 0.050090406
0.02988086 0.01387817 0.082935736 0.06345356 0.018715339 -0.07090116 0.05857007 -0.041939896
-0.06150555 0.05455554 0.04859151 0.008638342 -0.009657959 -0.09267905 -0.028521992 0.0634385
0.0031686374 0.0075676353 -0.039338212 -0.04982676 0.038374852 0.005450778 0.05750318 -0.03687431
0.018181713 0.03648405 -0.0055579916 0.035936303 0.060754858 0.058730196 0.054757625 -0.022600604
-0.095255606 -0.0014901033 -0.0284259 -0.03253835 -0.035836518 0.0041571544 0.04020184 0.0076524573

torso.2.bias f4 [64]
00000000: 0ba9 3abd 03a6 a1bd 93c1 0fbd cf21 02bd
00000010: a64e 513d c03c 7e3d 5770 71bd 5a77 7cbd
00000020: 46f0 5cbc 5fcf 3a3d 1ac7 c33d b563 253d
00000030: 7f2d 4c3b e783 163d c6ca 12bc 0d82 8d3d
00000040: f796 8e3d 16b8 c4bc 1e33 263d 3800 eb3c
00000050: de4b 253d e6dc f0bc 643f 3a3d bc6d bebd
00000060: c445 b03d fe10 b9bd 1c9c 8fbd 0a16 85bd
00000070: d076 ce3c c9a5 4bbc 1774 cfbd db79 063d
00000080: cf5e d8bc d6d6 d23d 60ff d5bd 5b18 d8bd
00000090: 8e8b 5f3d 3af3 553d 1a11 893d 8be4 94ba
000000a0: 52a4 193c 5afc ba3d 3451 ab3b 0870 babd
000000b0: 6efc cabd 660e 31bd 7350 98bb f823 c13d
000000c0: 15e2 8a3d 78c8 37bd 9ac5 c3bb 0efe de3d
000000d0: 5b97 083d 7aec 8b3b d35c 03bd d5bd 41ba
000000e0: ad1b 553d 49e5 06bd bc3a dbbc be02 1f3d
000000f0: 3197 393c fbcc 94bd 13f6 f73b b2b3 c93d
-0.04557137 -0.07892992 -0.035096716 -0.031770524 0.051100396 0.062069654 -0.058945026 -0.06163726
-0.01348502 0.04560792 0.0955946 0.04037829 0.0031155047 0.036746886 -0.008959478 0.06909571
0.06962388 -0.02401356 0.040576093 0.028686628 0.040355556 -0.029402208 0.04547061 -0.09298274
0.08607057 -0.09036444 -0.070121974 -0.06498344 0.025203139 -0.012429663 -0.10129564 0.032831054
-0.026412396 0.10294883 -0.104490995 -0.105515204 0.05457645 0.052233912 0.06692715 -0.0011359615
0.009377556 0.091301635 0.005228186 -0.091033995 -0.099114284 -0.043226622 -0.004648262 0.094306886
0.06781403 -0.044868916 -0.0059744837 0.10888301 0.03334747 0.0042701336 -0.032070946 -0.0007390653
0.052028347 -0.032933507 -0.026761405 0.038820975 0.011327551 -0.072656594 0.007567176 0.09848727

head.weight f4 [3, 64]
00000000: bad2 5ebd b351 1c3c 9191 2cbe ad5b 963d
00000010: 5ab3 4d3b 5799 26be cda4 b0bd 32c2 103d
00000020: fe79 59be 3479 12bb ea26 703e 6a75 17bd
00000030: aaa6 593e e1c8 14bd 6301 3bbd 072c 44be
00000040: 2d0f 51be d3f7 363e cb3c 223e f95e 823e
00000050: 9acf 0abe 2e53 203d 6855 7abc b722 ce3d
00000060: a61e 6bbe 8fd6 a1bc 9fc7 f5bd 28dc b2ba
00000070: 17b5 dabd fe71 a3bd f49a 8a3c ee25 803e
00000080: 4d9c 9e3d 9f33 603d 8bee ca3b 51b2 5e3d
00000090: 4510 47be ee14 2a3e 3eba 823d b996 1d3e
000000a0: 63d4 6dbe 80a7 2ebe d2b9 70be 3931 01be
000000b0: 2f18 eabc 71a7 33bd 738f 483e 4ea9 bb3d
000000c0: 139f ca3d b39d 373e c53d 5b3e 2b9f ef3c
000000d0: 64b2 78bd 1ce7 53be eba8 783e 7aae 683d
000000e0: 7c31 b1bd 37e8 853d edaf e03b 9b9d b6bd
000000f0: 9461 67be 7303 123e 9d3e fabc a0ca a8bd
00000100: 9e46 d53c 83b5 b43d 7dd4 0a3e d676 cd3d
00000110: 8bd0 4b3d 6ac8 123e 9910 cc3d 86bf c2bd
00000120: 5f1b 493e b418 a13d f06d 86be 720a c73d
00000130: 0c4b 18be 2edf 98bd 632f 903d 731a c5bc
00000140: f94c 373e be2b 40be 2c7a e1bd 09aa 80be
00000150: fb6f 593e d754 0b3d 63c4 d03d 02c3 7a3d
00000160: ad2c 8b3d b410 973b 8790 ad3d 6fd8 a9bd
00000170: cc5f 97bd 1e6d 22bd c761 87bd 9732 18be
00000180: 0f98 143e d922 ce3d 61cc 0dbe 599b 00be
00000190: dab6 3a3e 72b5 bbbd 8293 a8bd 0255 bfbc
000001a0: f123 ba3d 7590 3a3e d0a5 203e 2308 d03d
000001b0: 3d00 bd3c 6f4a 023e d3a3 97bd 2fcb 89bd
000001c0: 6dcf 83be e879 0bbe 2f62 3ebe ec2a fcbd
000001d0: 0932 c1bd e4af 9d3d 94d5 7cbe de8f 83bd
000001e0: 7dcb 2d3d 0939 a63d 7f18 d2bd 1758 133e
000001f0: 7479 0f3e 8bab d0bc 3292 5d3d ffef aa3d
00000200: 1d91 8ebd ced0 b53d 35c1 cdbd 2b93 b43d
00000210: a28e ca3d ac98 a53c 2c55 96bd d073 0fbe
00000220: b4df a3bc f742 da3d 9203 553b 98fd 46bd
00000230: 21a2 debc 3d15 7b3a fd63 633d 412f bd3d
00000240: 4bcb d03c 3afa 00be 18c8 923d cf65 3a3b
00000250: 0584 ebbd 490a c23d 1966 893d 738e 9c3b
00000260: ea8f 20bd 9698 c73d 4710 ec3d feb1 d53b
00000270: 20c5 243e e997 523d 59bb 883d 13a4 c7bc
00000280: 7ae4 80bd 84ce c93d 0310 d0bd c7ce 00be
00000290: b8b9 d73d e66a 28bd 9d23 a23d a1b8 84bd
000002a0: d8a6 f7bd 1b8b 36bb a2e1 1f3c 4b43 9e3c
000002b0: 8cbc dbbd 1e93 0dbe 103b a0bb 4b26 fe3d
000002c0: 2ced bfbd c37f c7bd 9577 ef3b e1b9 013e
000002d0: f2a4 e93d 4052 29bd a7ae 2fbc 2376 b3bd
000002e0: 1aed e03d da57 8b3d 0c61 d33c 45bd 06be
000002f0: f690 ce3d a2a2 10be 4751 54bb 5aa2 e43d
-0.054400183 0.009540963 -0.16852404 0.073417045 0.003138742 -0.16269432 -0.08625183 0.03534145
-0.21237943 -0.0022350075 0.23452345 -0.03697721 0.21254984 -0.036324386 -0.04565562 -0.1915742
-0.20415945 0.17867975 0.15843503 0.25463083 -0.13555756 0.039141826 -0.0152791515 0.10065215
-0.2296091 -0.01975563 -0.12000965 -0.0013645934 -0.106790714 -0.07980727 0.01691959 0.25028938
0.07744656 0.05473673 0.0061929873 0.054369275 -0.194398 0.16609547 0.06383179 0.15389527
-0.2322555 -0.17056084 -0.23508385 -0.12616433 -0.028575985 -0.043860856 0.19585972 0.09163152
0.09893622 0.17931251 0.21410282 0.029250702 -0.060717 -0.2069363 0.24283187 0.05680702
-0.086520165 0.06538432 0.0068569095 -0.089167796 -0.22595817 0.14259128 -0.030547434 -0.08241773
0.02603465 0.08823683 0.1355762 0.10032432 0.04975943 0.14334264 0.09964103 -0.095091864
0.19639347 0.0786604 -0.2625575 0.09718789 -0.14872378 -0.07464443 0.07040288 -0.024060464
0.17900456 -0.18766686 -0.110096306 -0.25129727 0.21234123 0.034016456 0.10193708 0.06122113
0.067956306 0.0046101455 0.08474832 -0.082932346 -0.07391319 -0.039654844 -0.066104464 -0.14863048
0.14511131 0.100652404 -0.13847496 -0.1255926 0.18233815 -0.09165467 -0.0823126 -0.023355965
0.090888865 0.18219168 0.15688252 0.10157802 0.023071403 0.12723707 -0.07404294 -0.06728207
-0.2574419 -0.13620722 -0.18592142 -0.12312874 -0.094333716 0.07699564 -0.24690849 -0.06423925
0.04243039 0.08116347 -0.102585785 0.14389072 0.14011174 -0.025472423 0.0540945 0.08346557
-0.06961272 0.08877717 -0.10046617 0.088171326 0.09890486 0.020214401 -0.07340464 -0.14009023
-0.02000413 0.10657304 0.0032503349 -0.04858169 -0.027176918 0.0009578055 0.055515278 0.092375286
0.025487563 -0.12595454 0.07167071 0.002844203 -0.1149979 0.09474618 0.06708927 0.0047777235
-0.039199747 0.097459 0.11526542 0.0065214625 0.16090822 0.051414404 0.06676359 -0.024370229
-0.062935784 0.09853843 -0.10159304 -0.1257888 0.1053347 -0.04111757 0.07916949 -0.06480528
-0.1209237 -0.002785391 0.009758385 0.019319197 -0.10729322 -0.13825652 -0.0048898533 0.124096476
-0.09371409 -0.097411655 0.0073079565 0.12668563 0.11408414 -0.041338205 -0.010722793 -0.08762767
0.109827235 0.06803866 0.025803111 -0.13158138 0.10086243 -0.1412454 -0.0032397078 0.111637786

head.bias f4 [3]
00000000: cccc 14bd fea2 f2bc 168a b93d
-0.036328122 -0.029618736 0.09059541
